…
      "WARNING:tensorflow:From C:\\Users\\KEVIN\\anaconda3\\lib\\site-packages\\tensorflow\\python\\ops\\init_ops.py:1251: calling VarianceScaling.__init__ (from tensorflow.python.ops.init_ops) with dtype is deprecated and will be removed in a future version.\n",
      "Instructions for updating:\n",
      "Call initializer instance with the dtype argument instead of passing it to the constructor\n",
      "Model: \"sequential\"\n",
      "_________________________________________________________________\n",
      "Layer (type)                 Output Shape              Param #   \n",
      "=================================================================\n",
      "conv2d (Conv2D)              (None, 30, 30, 256)       7168      \n",
      "_________________________________________________________________\n",
      "max_pooling2d (MaxPooling2D) (None, 15, 15, 256)       0         \n",
      "_________________________________________________________________\n",
      "dropout (Dropout)            (None, 15, 15, 256)       0         \n",
      "_________________________________________________________________\n",
      "conv2d_1 (Conv2D)            (None, 13, 13, 128)       295040    \n",
      "_________________________________________________________________\n",
      "max_pooling2d_1 (MaxPooling2 (None, 6, 6, 128)         0         \n",
      "_________________________________________________________________\n",
      "dropout_1 (Dropout)          (None, 6, 6, 128)         0         \n",
      "_________________________________________________________________\n",
      "conv2d_2 (Conv2D)            (None, 4, 4, 64)          73792     \n",
      "_________________________________________________________________\n",
      "max_pooling2d_2 (MaxPooling2 (None, 2, 2, 64)          0         \n",
      "_________________________________________________________________\n",
      "dropout_2 (Dropout)          (None, 2, 2, 64)          0         \n",
      "_________________________________________________________________\n",
      "flatten (Flatten)            (None, 256)               0         \n",
      "_________________________________________________________________\n",
      "dense (Dense)                (None, 32)                8224      \n",
      "_________________________________________________________________\n",
      "dense_1 (Dense)              (None, 7)                 231       \n",
      "=================================================================\n",
      "Total params: 384,455\n",
      "Trainable params: 384,455\n",
      "Non-trainable params: 0\n",
      "_________________________________________________________________\n"
     ]
    }
   ],
   "source": [
    "num_classes = 7\n",
    "\n",
    "model = Sequential()\n",
    "model.add(Conv2D(256, (3, 3), activation=\"relu\", input_shape=(SIZE, SIZE, 3)))\n",
…
   "outputs": [],
   "source": [
    "VGG_model=VGG16(weights='imagenet',include_top=False,input_shape=(32,32,3))"
   ]
  },
  {
   "cell_type": "code",
   "execution_count": 101,
   "metadata": {
    "scrolled": true
   },
   "outputs": [
    {
     "name": "stdout",
     "output_type": "stream",
     "text": [
      "Model: \"vgg16\"\n",
      "_________________________________________________________________\n",
      "Layer (type)                 Output Shape              Param #   \n",
      "=================================================================\n",
      "input_1 (InputLayer)         (None, 32, 32, 3)         0         \n",
      "_________________________________________________________________\n",
      "block1_conv1 (Conv2D)        (None, 32, 32, 64)        1792      \n",
      "_________________________________________________________________\n",
      "block1_conv2 (Conv2D)        (None, 32, 32, 64)        36928     \n",
      "_________________________________________________________________\n",
      "block1_pool (MaxPooling2D)   (None, 16, 16, 64)        0         \n",
      "_________________________________________________________________\n",
      "block2_conv1 (Conv2D)        (None, 16, 16, 128)       73856     \n",
      "_________________________________________________________________\n",
      "block2_conv2 (Conv2D)        (None, 16, 16, 128)       147584    \n",
      "_________________________________________________________________\n",
      "block2_pool (MaxPooling2D)   (None, 8, 8, 128)         0         \n",
      "_________________________________________________________________\n",
      "block3_conv1 (Conv2D)        (None, 8, 8, 256)         295168    \n",
      "_________________________________________________________________\n",
      "block3_conv2 (Conv2D)        (None, 8, 8, 256)         590080    \n",
      "_________________________________________________________________\n",
      "block3_conv3 (Conv2D)        (None, 8, 8, 256)         590080    \n",
      "_________________________________________________________________\n",
      "block3_pool (MaxPooling2D)   (None, 4, 4, 256)         0         \n",
      "_________________________________________________________________\n",
      "block4_conv1 (Conv2D)        (None, 4, 4, 512)         1180160   \n",
      "_________________________________________________________________\n",
      "block4_conv2 (Conv2D)        (None, 4, 4, 512)         2359808   \n",
      "_________________________________________________________________\n",
      "block4_conv3 (Conv2D)        (None, 4, 4, 512)         2359808   \n",
      "_________________________________________________________________\n",
      "block4_pool (MaxPooling2D)   (None, 2, 2, 512)         0         \n",
      "_________________________________________________________________\n",
      "block5_conv1 (Conv2D)        (None, 2, 2, 512)         2359808   \n",
      "_________________________________________________________________\n",
      "block5_conv2 (Conv2D)        (None, 2, 2, 512)         2359808   \n",
      "_________________________________________________________________\n",
      "block5_conv3 (Conv2D)        (None, 2, 2, 512)         2359808   \n",
      "_________________________________________________________________\n",
      "block5_pool (MaxPooling2D)   (None, 1, 1, 512)         0         \n",
      "=================================================================\n",
      "Total params: 14,714,688\n",
      "Trainable params: 0\n",
      "Non-trainable params: 14,714,688\n",
      "_________________________________________________________________\n"
     ]
    }
   ],
   "source": [
    "for layer in VGG_model.layers:\n",
    "    layer.trainable=False\n",
    "VGG_model.summary()"
…
